CHANDRU ex07.pth (torch, 41788 bytes, 7 tensors)

encoder.0.weight f4 [16, 1, 3, 3]
0.20314918 0.14407481 -0.0302221 -0.25592998 -0.2268623 0.3955784 0.12363987 0.12355143
0.18060826 0.22489716 -0.33854958 0.11328559 0.20295106 0.105821736 0.19221063 0.011565258
0.106925294 0.044216577 0.2808559 0.34242612 0.37788385 0.29834798 0.21354602 -0.04770136
0.07824392 -0.12773678 0.3265407 -0.07719651 -0.10551436 -0.020780899 -0.054285653 0.31564036
0.15375744 0.0015260788 -0.13768306 -0.07000353 -0.14050418 -0.053270623 0.028863287 0.23166284
0.18930115 0.3752718 0.0071837907 -0.19419159 0.11190713 -0.055419803 0.13200526 -0.051833823
0.022885976 0.39382675 0.380231 -0.27891007 0.16940813 -0.22310182 0.1581472 0.23705815
0.33349612 -0.1288942 0.21228218 0.38631174 -0.014923381 0.043155108 0.39529142 -0.094068944
-0.2428085 0.16381419 0.3094749 0.03501834 0.11193987 -0.12028551 -0.011453024 0.27966827
-0.108537264 -0.22695692 0.16012433 -0.21380284 0.3573586 0.2604334 0.33257148 0.2515609
0.020362925 0.33011281 -0.17849451 -0.052556895 0.14310345 0.14318244 0.16434038 0.31896964
0.23869014 0.07622936 0.054583505 -0.103302926 0.39530954 0.36291155 0.11201891 0.3900926
-0.20259903 -0.23132834 -0.20689821 0.024309538 -0.25110236 0.24642205 -0.20778437 0.34906673
0.09443397 0.07115002 -0.04544083 0.026377818 -0.17164862 0.29485118 0.030400073 0.005762834
0.37147728 -0.35325754 -0.027003663 0.37786344 -0.012647716 -0.17343771 0.42271918 0.25819224
-0.16196401 0.15584469 -0.03791431 -0.25972846 0.31767756 -0.031910874 0.28841963 0.0036194546
-0.08233248 0.1324282 0.27652872 0.00808983 0.086584955 -0.15410826 -0.1633603 0.40782768
-0.17006017 0.097521044 0.2544559 -0.18686213 0.074131146 0.02550577 -0.15805122 -0.18214531
00000000: 5706 503e 5988 133e 5694 f7bc 4109 83be
00000010: 974e 68be 4189 ca3e e636 fd3d 8808 fd3d
00000020: 5ff1 383e 714b 663e 5f56 adbe 4702 e83d
00000030: 67d2 4f3e 11b9 d83d ddd2 443e 357c 3d3c
00000040: a6fb da3d 711c 353d 58cc 8f3e 7a52 af3e
00000050: fe79 c13e 11c1 983e cfab 5a3e 8062 43bd
00000060: 593e a03d 6ecd 02be 5830 a73e 3419 9ebd
00000070: ea17 d8bd b43c aabc a25a 5ebd 9d9b a13e
00000080: 9772 1d3e b506 c83a cafc 0cbe 035e 8fbd
00000090: 54e0 0fbe 4c32 5abd b372 ec3c 0639 6d3e
000000a0: 29d8 413e a023 c03e 0166 eb3b 29da 46be
000000b0: 912f e53d e0ff 62bd 632c 073e b44f 54bd
000000c0: 5f7b bb3c a9a3 c93e a3ad c23e 4dcd 8ebe
000000d0: 5379 2d3e ce74 64be 57f1 213e 5fbf 723e
000000e0: 01c0 aa3e d7fc 03be 8060 593e a7ca c53e
000000f0: 3281 74bc 69c3 303d a363 ca3e 38a7 c0bd
00000100: cba2 78be e8be 273e 7e73 9e3e 646f 0f3d
00000110: bb40 e53d 4058 f6bd 77a5 3bbc ae30 8f3e
00000120: c948 debd 6567 68be a2f7 233e 22ef 5abe
00000130: b5f7 b63e 8757 853e cf46 aa3e 97cc 803e
00000140: 26d0 a63c 8c04 a93e 44c7 36be e645 57bd
00000150: b689 123e 6b9e 123e d848 283e fd4f a33e
00000160: 306b 743e 241e 9c3d f492 5f3d 7c90 d3bd
00000170: 0366 ca3e 8bcf b93e 2c6a e53d 38ba c73e
00000180: 1f76 4fbe 56e1 6cbe 20dd 53be cc24 c73c
00000190: 7d90 80be 1056 7c3e 6dc5 54be e0b8 b23e
000001a0: 9966 c13d 1ab7 913d 2a20 3abd 4b16 d83c
000001b0: a8c4 2fbe bcf6 963e 9309 f93c 28d6 bc3b
000001c0: 4532 be3e 2cde b4be c936 ddbc 5177 c13e
000001d0: 5e38 4fbc a899 31be a66e d83e c631 843e
000001e0: e5d9 25be c095 1f3e 094c 1bbd 21fb 84be
000001f0: a2a6 a23e fab4 02bd bdab 933e 5f34 6d3b
00000200: ee9d a8bd 429b 073e 2c95 8d3e 358b 043c
00000210: 7453 b13d 8ece 1dbe ec47 27be cace d03e
00000220: 4124 2ebe 1db9 c73d 0b48 823e c958 3fbe
00000230: 12d2 973d 7af1 d03c 2ed8 21be 4d84 3abe

encoder.0.bias f4 [16]
0.0010198539 0.0654368 0.2362882 0.34785193 0.056120712 0.03547068 0.11772893 0.24808954
0.24825554 0.022109197 0.24941696 -0.04794816 -0.06995229 0.038006872 0.26542693 0.034684833
00000000: 9eac 853a bb03 863d 89f5 713e a619 b23e
00000010: d5de 653d b449 113d de1b f13d 2f0b 7e3e
00000020: b336 7e3e 591e b53c 2967 7f3e 4a65 44bd
00000030: 2543 8fbd 18ad 1b3d 0ae6 873e af11 0e3d

encoder.2.weight f4 [32, 16, 3, 3]
0.030184848 0.11155177 0.047982704 0.06696056 0.10056573 0.07555747 0.13432306 0.12911317
0.054381724 0.015674887 0.070638865 0.027941134 0.005094406 0.07723938 0.014011871 0.13293254
0.13808462 0.034511212 0.0060200826 0.023798363 0.12287852 0.11440548 0.07251371 0.09113208
0.11776366 -0.0131309945 0.089136675 0.10851382 0.049210247 0.10044434 0.04049997 0.021543551
0.08301052 0.08118629 0.13999633 0.055911765 0.13430317 0.12844893 0.13292053 -0.013716134
0.036784817 0.06724733 0.13865122 0.02169558 0.013597963 0.05976175 0.08220593 0.07074797
-0.000483928 0.05402878 0.041360818 0.12346813 0.061238516 0.06100432 -0.014995955 0.08121675
0.11936142 -0.007276682 0.034254268 0.12565966 0.028366016 0.018887179 0.025240466 0.13709174
0.06894556 0.15161514 0.043740217 0.021065684 0.005552541 0.099740386 0.13770431 0.04739354
0.10783178 0.03049574 0.015070282 0.0051476113 0.11609777 -0.002896577 0.020874413 0.14102525
0.14674489 0.14645661 0.06950449 0.058259245 0.045153163 0.16457768 0.12589099 0.09127906
0.1438867 0.23815012 -0.0064683445 0.09473604 0.042068206 -0.015642937 0.08632467 0.116872795
0.004057044 0.1452577 0.060463473 0.029907726 0.06770834 0.024297336 0.051922176 0.08997563
0.112629674 0.13285607 0.13087785 0.10406259 0.032456458 0.019295184 0.120388575 0.1075445
0.04353962 0.028307753 0.056608822 0.1364226 0.16984394 0.08458686 0.019219056 0.1513799
0.10216978 0.02593162 0.0029206597 0.0611229 0.049852427 0.06196826 0.13985847 0.093459435
0.031239549 0.010750286 0.093315735 0.11630808 0.07637866 0.054737233 0.0009403268 0.043895707
0.020508097 0.15041801 0.12961477 0.08058507 0.089823514 0.010216211 0.07986398 0.11308839
0.022488076 0.052091487 0.008400253 0.087596945 0.040646866 0.07631456 0.104285695 0.15760393
0.09352451 -0.012403596 -0.013985947 0.008955031 0.13286269 0.10599934 0.17745528 0.15715645
0.16798434 0.18665755 0.09735295 0.07586525 0.10527122 0.043805737 -0.013554133 0.021303795
0.12788638 -0.006557668 0.13777529 0.08030743 0.122155294 0.1294558 0.1219282 0.041518964
0.16117264 0.14254697 0.1056484 0.12792099 0.008552228 0.0017420681 0.089711845 0.11571911
0.022250585 0.099225596 0.050480697 0.10862229 0.011200953 -0.015673952 0.15191531 0.13377288
0.13852312 0.06355346 0.12539212 0.03963084 0.0879448 0.068834364 0.010526244 0.039121844
-0.007263844 0.08685362 -0.009275578 0.11718818 0.050631385 0.14415254 0.060037136 0.12585469
0.12348987 0.0674427 0.104719795 0.14487185 0.049849242 -0.007752681 0.12032251 0.090590134
0.01429294 0.021898322 0.050479945 0.108025394 -0.0064212605 0.10161384 0.042361006 0.10078135
0.08809354 0.15757051 0.023796273 0.15073225 0.08183852 0.09612025 0.14490165 0.18030779
0.19326355 0.16732636 0.12042419 0.020669129 0.13033716 0.14011717 0.04146805 0.003930691
0.020961713 0.059615463 0.0012020944 -0.040342614 0.14621842 0.123670295 -0.03498324 0.07565343
0.1503376 0.15511279 0.14772388 0.0683809 -0.0030105049 0.077700466 -0.011790038 0.07086441
00000000: 3746 f73c 4175 e43d 8389 443d 9e22 893d
00000010: 68f5 cd3d e0bd 9a3d fc8b 093e 3e36 043e
00000020: 5fbf 5e3d 9f68 803c 1cab 903d cee4 e43c
00000030: faee a63b ae2f 9e3d 0c92 653c 781f 083e
00000040: 0e66 0d3e a15b 0d3d 1d44 c53b c9f4 c23c
00000050: bca7 fb3d 6c4d ea3d 1182 943d 75a3 ba3d
00000060: 132e f13d 6223 57bc 4a8d b63d 7e3c de3d
00000070: af90 493d c3b5 cd3d 4ce3 253d 1a7c b03c
00000080: 6b01 aa3d ff44 a63d 335b 0f3e bc03 653d
00000090: c586 093e 1e88 033e 521c 083e a3b9 60bc
000000a0: adab 163d f8b8 893d 96fa 0d3e eeba b13c
000000b0: fec9 5e3c bdc8 743d 955b a83d 50e4 903d
000000c0: b7b7 fdb9 484d 5d3d f669 293d dcdc fc3d
000000d0: 3dd5 7a3d aadf 793d 98b1 75bc f854 a63d
000000e0: c373 f43d 3c71 eebb 344e 0c3d edac 003e
000000f0: d95f e83c 49b9 9a3c 18c5 ce3c c761 0c3e
00000100: 5433 8d3d 0041 1b3e f128 333d f191 ac3c
00000110: 17f2 b53b b044 cc3d 5c02 0d3e bb1f 423d
00000120: e9d6 dc3d 34d2 f93c 58e9 763c 4bad a83b
00000130: abc4 ed3d 7fd4 3dbb d100 ab3c ec68 103e
00000140: 4b44 163e b9f8 153e 5f58 8e3d 3fa1 6e3d
00000150: 86f2 383d 0d87 283e 91e9 003e 84f0 ba3d
00000160: 0957 133e a0dd 733e 68f4 d3bb f804 c23d
00000170: b64f 2c3d 9e25 80bc fdca b03d 015b ef3d
00000180: f4f0 843b 6fbe 143e 8ca8 773d 0c01 f53c
00000190: acaa 8a3d 350b c73c 59ac 543d 2545 b83d
000001a0: 63aa e63d 6c0b 083e d804 063e c41e d53d
000001b0: 10f1 043d ef10 9e3c 498e f63d 4a40 dc3d
000001c0: 9a56 323d a9e5 e73c a7de 673d 5eb2 0b3e
000001d0: 92eb 2d3e e03b ad3d 4871 9d3c 5503 1b3e
000001e0: 643e d13d 8c6e d43c 8a68 3f3b 025c 7a3d
000001f0: 0f32 4c3d 6ed2 7d3d 0f37 0f3e a967 bf3d
00000200: 15ea ff3c f821 303c 521c bf3d ee32 ee3d
00000210: 6a6c 9c3d 2634 603d 4380 763a fccb 333d
00000220: 9900 a83c 2e07 1a3e bcb9 043e c909 a53d
00000230: 64f5 b73d e561 273c ba8f a33d e39a e73d
00000240: ea38 b83c e25d 553d 37a1 093c 0766 b33d
00000250: 547d 263d cf4a 9c3d bd93 d53d ed62 213e
00000260: c789 bf3d 7438 4bbc 5025 65bc 1fb8 123c
00000270: 280d 083e 2f16 d93d d6b6 353e 9fed 203e
00000280: 1604 2c3e 2823 3f3e fc60 c73d 3d5f 9b3d
00000290: 7098 d73d a56d 333d 2712 5ebc 4c85 ae3c
000002a0: a6f4 023e b5e1 d6bb f714 0d3e 3978 a43d
000002b0: 8e2c fa3d 1090 043e 7eb5 f93d ca0f 2a3d
000002c0: 710a 253e d5f7 113e 305e d83d b8fd 023e
000002d0: a51e 0c3c 1b56 e43a d8ba b73d 24fe ec3d
000002e0: dc46 b63c ca36 cb3d d9c4 4e3d 5d75 de3d
000002f0: 3484 373c a966 80bc b08f 1b3e c2fb 083e
00000300: 01d9 0d3e 5128 823d cb66 003e f353 223d
00000310: 671c b43d 08f9 8c3d 4476 2c3c 3a3e 203d
00000320: 8a05 eebb 50e0 b13d 98f8 17bc 5b00 f03d
00000330: db62 4f3d b99c 133e 80e9 753d 0de0 003e
00000340: 42e8 fc3d 661f 8a3d 5577 d63d 4959 143e
00000350: b82e 4c3d 340a febb a66b f63d 5287 b93d
00000360: ef2c 6a3c 1c64 b33c 0fc4 4e3d 6b3c dd3d
00000370: 7069 d2bb eb1a d03d bc82 2d3d 7466 ce3d
00000380: 636a b43d 2a5a 213e 67f0 c23c 8e59 1a3e
00000390: f49a a73d b2da c43d 1961 143e 9ba2 383e
000003a0: e1e6 453e 9a57 2b3e f5a0 f63d 4e52 a93c
000003b0: 1b77 053e e07a 0f3e 67da 293d 07cd 803b
000003c0: e6b7 ab3c 582f 743d 988f 9d3a 4c3e 25bd
000003d0: 48ba 153e da46 fd3d 964a 0fbd 2ff0 9a3d
000003e0: 1af2 193e e3d5 1e3e ee44 173e 490b 8c3d
000003f0: e44b 45bb 6c21 9f3d 012b 41bc 5c21 913d

encoder.2.bias f4 [32]
0.006106705 0.107656606 0.038175557 0.08284947 0.07411864 0.11795158 0.11406331 0.088038415
-0.08468517 0.005139562 -0.039509013 0.11367324 0.11676024 0.092998184 -0.007540223 0.007042098
-0.056620993 0.002743625 0.0018363786 0.05674117 0.029979615 0.037452076 -0.002139667 0.065585524
0.14021023 0.07381006 0.07159698 0.1477599 0.10005562 0.01798438 0.021191897 0.09772892
00000000: c11a c83b 117b dc3d f95d 1c3d fcac a93d
00000010: 83cb 973d 9990 f13d 069a e93d 7c4d b43d
00000020: 6b6f adbd c569 a83b 34d4 21bd 84cd e83d
00000030: fe1f ef3d d575 be3d fa13 f7bb 66c1 e63b
00000040: 6aeb 67bd 64ce 333b a4b2 f03a 6e69 683d
00000050: cf97 f53c 5967 193d a839 0cbb b451 863d
00000060: 4593 0f3e bb29 973d 70a1 923d 5f4e 173e
00000070: f6e9 cc3d fa53 933c a19a ad3c 1a26 c83d

decoder.0.weight f4 [32, 16, 3, 3]
-0.028244793 0.04306627 -0.044072397 -0.0007880499 -0.004434479 -0.05505579 -0.08071881 -0.05078625
-0.021783907 0.019239118 0.027046552 -0.089507625 0.02201422 0.0072320173 -0.060110558 -0.009503525
0.03345735 0.008972684 -0.07826579 -0.06643198 0.046237845 -0.056253962 -0.044288456 0.018137239
-0.040972948 -0.012269498 -0.04951989 0.017368957 0.0924976 0.113015026 0.014294646 0.055679385
0.1551481 0.00018644737 0.10253032 0.09257829 0.115118675 0.10498074 0.12116788 -0.0098246625
0.0123142535 0.021187501 0.08939938 0.00606994 0.08429878 0.06402172 -0.027289266 -0.01059263
0.05234412 -0.0051821065 -0.040185653 -0.003770766 -0.027211903 -0.031857554 0.0074859895 0.01659745
0.06958613 0.125017 0.117935725 0.09817201 0.12601002 0.09497828 0.1611709 0.008404127
0.026362592 0.05835691 -0.037211213 0.09549545 0.13673083 -0.03815261 0.02801284 -0.062301993
-0.065318964 0.043780334 -0.027918236 0.053624585 -0.06363091 0.03123061 0.016619753 -0.0326212
-0.07225401 0.09673166 0.11749333 0.12604938 0.038161352 0.11287895 -0.008714884 0.09530109
0.11977683 0.052582104 0.00042194623 -0.01969721 -0.083707415 0.06015877 0.029950025 0.039413866
-0.049986057 -0.040592294 -0.049449533 -0.010060147 0.051702745 0.11906719 0.009061689 0.06878905
0.13289383 0.13656154 0.080173835 0.08838503 0.05423809 -0.024369316 -0.009439187 -0.029304732
-0.023674969 0.043258492 0.09733693 -0.008112115 0.07038537 0.066848665 0.09214259 -0.01573089
0.051308364 0.002147554 0.039076667 0.054411102 0.0859525 0.1149453 -0.0202338 0.094155416
0.0640996 0.0033923553 0.116581984 0.13642222 0.12001602 0.17396644 0.16265671 0.116916224
-0.01032184 0.031279396 0.11178294 0.01242615 0.10543408 0.05913881 -0.014135585 0.13207732
-0.09698532 -0.009127768 0.012356894 0.061459035 -2.0556952e-05 -0.006300417 0.047087066 0.006914039
-0.047978424 -0.059548017 -0.021428557 -0.104166396 0.024220917 -0.11373624 -0.09428904 -0.045441613
-0.10372186 0.046600576 -0.07001638 -0.05190519 -0.071806595 -0.044062275 -0.091544606 -0.07741279
-0.014841701 -0.06771017 -0.0027788943 -0.04666068 0.039204262 0.075961314 0.075171694 0.08851585
0.029556368 -0.015300276 0.0018626389 0.08594373 0.013247751 0.11407193 0.0045156213 0.08930948
-0.042051457 0.14657061 0.038037036 -0.029528162 0.01070662 -0.011091271 -0.009987997 0.014586085
-0.09420026 -0.0788232 -0.06155941 0.0009728557 -0.008269766 0.056865737 0.10062219 -0.030956417
-0.009189511 -0.039489485 0.04315059 0.046700735 0.1318573 0.051546726 0.14997172 -0.021008866
0.067489244 -0.011822053 -0.033377025 0.124290824 -0.004934766 -0.07802455 0.03914298 -0.040338494
-0.0274951 0.124894515 0.014083351 0.030905616 -0.036999743 -0.055302728 -0.039588526 -0.03219867
-0.0045661624 -0.042352278 0.11314528 -0.03400751 0.03535065 0.15894727 0.032293502 0.08573831
0.03171116 0.10619693 -0.036513466 0.060198214 -0.0059710774 -0.04985112 -0.07599372 0.059262816
-0.015623228 0.033370502 -0.04177621 0.045563933 0.10957299 0.005886171 0.11955112 0.0030293886
0.12206951 0.03113489 0.03885252 -0.00086803135 0.018935889 0.0092781 0.035867088 0.023515476
00000000: a061 e7bc 4266 303d 4285 34bd 2295 4eba
00000010: 1b4f 91bb 2e82 61bd e74f a5bd 3e05 50bd
00000020: 2a74 b2bc 5b9b 9d3c bb90 dd3c c64f b7bd
00000030: 2a57 b43c 8ffa ec3b 7d36 76bd acb4 1bbc
00000040: 930a 093d 2a02 133c d149 a0bd 7d0d 88bd
00000050: e563 3d3d 8e6a 66bd d067 35bd 8c94 943c
00000060: 40d3 27bd 0106 49bc 5ed5 4abd 5849 8e3c
00000070: 626f bd3d 6c74 e73d 1734 6a3c 1110 643d
00000080: 25df 1e3e 1681 4339 6bfb d13d b099 bd3d
00000090: 57c3 eb3d 2400 d73d de26 f83d 9ff7 20bc
000000a0: b9c1 493c 6991 ad3c 0617 b73d 59e6 c63b
000000b0: d7a4 ac3d d21d 833d bd8d dfbc b68c 2dbc
000000c0: ca66 563d a9ce a9bb b699 24bd f51e 77bb
000000d0: 7feb debc 117d 02bd 084d f53b 60f7 873c
000000e0: 2c83 8e3d 7504 003e 4988 f13d 680e c93d
000000f0: c508 013e f983 c23d fc09 253e 77b1 093c
00000100: 5df6 d73c a807 6f3d c96a 18bd 1e93 c33d
00000110: 2b03 0c3e e945 1cbd 2f7b e53c 6030 7fbd
00000120: f3c5 85bd 0253 333d c9b4 e4bc 74a5 5b3d
00000130: ec50 82bd 56d7 ff3c 2626 883c cf9d 05bd
00000140: e9f9 93bd 401b c63d 58a0 f03d 1713 013e
00000150: 144f 1c3d 142d e73d dfc8 0ebc 382d c33d
00000160: 8e4d f53d 5560 573d aa38 dd39 0b5c a1bc
00000170: cb6e abbd 0b69 763d c159 f53c 6f70 213d
00000180: 2ebe 4cbd 1b44 26bd 988b 4abd 51d3 24bc
00000190: 42c6 533d 80d9 f33d 7a77 143c 46e1 8c3d
000001a0: 5215 083e cad6 0b3e 2e32 a43d 3603 b53d
000001b0: c228 5e3d 29a2 c7bc d2a6 1abc 7a10 f0bc
000001c0: 02f2 c1bc d12f 313d 9658 c73d ade8 04bc
000001d0: 3426 903d f4e7 883d 41b5 bc3d 11de 80bc
000001e0: b828 523d fabd 0c3b db0e 203d 2dde 5e3d
000001f0: dd07 b03d 7168 eb3d 5bc1 a5bc 8ed4 c03d
00000200: a746 833d 4752 5e3b 89c2 ee3d 44b2 0b3e
00000210: f6ca f53d 4224 323e 7b8f 263e c671 ef3d
00000220: ef1c 29bc d31e 003d 74ee e43d 0d97 4b3c
00000230: d3ed d73d 893b 723d f198 67bc 473f 073e
00000240: 3da0 c6bd a28c 15bc 9274 4a3c 78bc 7b3d
00000250: b871 acb7 ba73 cebb 5ede 403d 2a8f e23b
00000260: 0685 44bd 9fe8 73bd f18a afbc 3155 d5bd
00000270: f26a c63c 8cee e8bd 9d1a c1bd fc20 3abd
00000280: 206c d4bd 3fe0 3e3d bf64 8fbd 899a 54bd
00000290: 560f 93bd a57a 34bd bd7b bbbd 998a 9ebd
000002a0: 9b2a 73bc a1ab 8abd 1c1e 36bb 451f 3fbd
000002b0: a694 203d 9b91 9b3d 9ef3 993d cc47 b53d
000002c0: 3220 f23c 02ae 7abc ca23 f43a 4403 b03d
000002d0: 180d 593c 8b9e e93d c7f7 933b e3e7 b63d
000002e0: 263e 2cbd 9b16 163e b9cc 1b3d 0be5 f1bc
000002f0: d26a 2f3c 2ab8 35bc b2a4 23bc 7afa 6e3c
00000300: 11ec c0bd 0f6e a1bd b825 7cbd 3e07 7f3a
00000310: ea7d 07bc 0cec 683d 0213 ce3d 5098 fdbc
00000320: 9a8f 16bc babf 21bd acbe 303d 4549 3f3d
00000330: 9a05 073e a922 533d 3092 193e c91a acbc
00000340: cd37 8a3d 49b1 41bc 59b6 08bd 308c fe3d
00000350: d1b3 a1bb 56cb 9fbd 6454 203d fa39 25bd
00000360: 673d e1bc b2c8 ff3d dbbd 663c c62d fd3c
00000370: 0b8d 17bd 1d85 62bd 9427 22bd c1e2 03bd
00000380: bf9f 95bb 9579 2dbd b6b8 e73d 754b 0bbd
00000390: d8cb 103d 13c3 223e 3146 043d 9197 af3d
000003a0: 90e3 013d c77d d93d 258f 15bd 6792 763d
000003b0: 07a9 c3bb b030 4cbd 98a2 9bbd 91bd 723d
000003c0: 91f8 7fbc 82af 083d 881d 2bbd 3fa1 3a3d
000003d0: ce67 e03d c8e0 c03b 38d7 f43d b588 463b
000003e0: 94ff f93d 990e ff3c d223 1f3d 998c 63ba
000003f0: 701f 9b3c 2c03 183c 5ee9 123d 87a3 c03c

decoder.0.bias f4 [16]
-0.06648967 0.052616075 -0.0090529155 -0.0036177663 0.01758978 -0.0316576 0.06987354 0.015179712
-0.095915094 0.11485884 -0.12090051 0.05951526 0.024681902 0.016579673 0.052887816 0.093518086
00000000: bc2b 88bd f483 573d ae52 14bc 0c18 6dbb
00000010: 7118 903c 66ab 01bd dc19 8f3d 54b4 783c
00000020: 226f c4bd 1d3b eb3d b09a f7bd 46c6 733d
00000030: b331 ca3c 18d2 873c e5a0 583d 6986 bf3d

decoder.2.weight f4 [16, 1, 3, 3]
-0.0022584575 -0.054321993 0.26180294 0.20840372 -0.12390004 -0.1068241 0.25475678 0.0048879683
0.2060538 0.07237664 -0.21753909 -0.12557806 0.050836403 0.30696854 -0.20338902 -0.2632047
0.12502417 0.21822023 -0.3312665 0.07830199 0.29339486 -0.18860695 0.30805638 0.063493334
0.2810096 0.14580756 -0.04120723 0.053403392 -0.37285078 -0.35229406 -0.34607765 -0.34183186
-0.42426503 0.19289944 -0.08777321 -0.12201267 0.039376087 -0.13204552 -0.299014 -0.043284956
0.0019346436 -0.30912945 -0.32649887 0.22723766 -0.24952045 0.14038962 -0.07714443 -0.13928087
0.2378875 0.29328305 0.23802382 0.001076388 -0.14274842 0.32056132 0.033038344 0.2240377
-0.25898445 -0.04024236 -0.16340502 0.110948324 -0.16631018 -0.3782024 -0.3411119 0.36094093
0.17330721 -0.0048140106 -0.41125906 -0.28795776 0.17055915 0.13095722 -0.2081302 -0.10417136
0.023434361 -0.2642282 -0.05462135 0.120914355 0.15148486 -0.34371912 -0.25842997 0.07646443
-0.07849996 0.19008994 -0.108347304 -0.13374917 0.071224354 -0.1282731 0.24289195 -0.27050057
-0.37757662 -0.35749155 -0.12187552 0.36280927 -0.093604095 0.19815852 0.3409971 0.03472001
0.19879618 0.27768812 0.11997656 -0.30315048 0.036825344 -0.29025874 -0.13287748 -0.23313646
-0.28261918 -0.34094515 0.12477825 0.16503315 -0.34908417 -0.35546356 0.10673305 0.0596172
0.23366986 -0.3475625 -0.09181282 -0.2649182 0.0040195663 -0.2942148 -0.33268696 -0.17096332
-0.24583949 -0.08554932 0.00029674056 -0.042751163 -0.04751946 -0.3234209 0.07461211 0.08410125
-0.12764858 0.21001476 -0.43951973 -0.23509093 0.22275798 -0.068886496 -0.33138353 -0.035031322
0.1285659 -0.03930138 -0.37181705 0.004361247 0.05485937 -0.29470375 -0.11609001 -0.098011754
00000000: a102 14bb bd80 5ebd 090b 863e c967 553e
00000010: 4ebf fdbd 98c6 dabd 7b6f 823e 402b a03b
00000020: c4ff 523e 343a 943d 91c2 5ebe 8997 00be
00000030: d539 503d fb2a 9d3e 3645 50be c4c2 86be
00000040: 5606 003e 2075 5f3e c39b a9be cb5c a03d
00000050: da37 963e 2e22 41be 91b9 9d3e cb08 823d
00000060: 7ee0 8f3e 944e 153e eac8 28bd 84bd 5a3d
00000070: 4ce6 bebe e35f b4be 1731 b1be 9604 afbe
00000080: 4439 d9be 6e87 453e 71c2 b3bd c7e1 f9bd
00000090: d248 213d f136 07be 5d18 99be 914b 31bd
000000a0: de93 fd3a 3746 9ebe dc2a a7be fdb0 683e
000000b0: 4a82 7fbe 4cc2 0f3e e6fd 9dbd a59f 0ebe
000000c0: c898 733e 3229 963e 84bc 733e 9715 8d3a
000000d0: a42c 12be 9d20 a43e 3753 073d 246a 653e
000000e0: 9c99 84be 2cd5 24bd a553 27be e038 e33d
000000f0: 374d 2abe bfa3 c1be 38a6 aebe 40cd b83e
00000100: 7277 313e d9be 9dbb 8c90 d2be 336f 93be
00000110: 0fa7 2e3e a619 063e 1520 55be cb57 d5bd
00000120: 6bf9 bf3c eb48 87be a3ba 5fbd f2a1 f73d
00000130: d91e 1b3e f4fb afbe ef50 84be 6299 9c3d
00000140: 96c4 a0bd f0a6 423e 31e5 ddbd 8bf5 08be
00000150: 13de 913d 065a 03be abb8 783e 0d7f 8abe
00000160: b951 c1be 2209 b7be df99 f9bd 23c2 b93e
00000170: 81b3 bfbd 11ea 4a3e 2c97 ae3e 9236 0e3d
00000180: 3a91 4b3e 232d 8e3e 45b6 f53d 8a36 9bbe
00000190: 2cd6 163d cb9c 94be 0911 08be 53bb 6ebe
000001a0: 76b3 90be 5d90 aebe bd8b ff3d 73fe 283e
000001b0: 29bb b2be 52ff b5be db96 da3d 2a31 743d
000001c0: 2747 6f3e b6f3 b1be 5c08 bcbd 5ca3 87be
000001d0: 91b6 833b 52a3 96be f255 aabe 0211 2fbe
000001e0: 59bd 7bbe 7b34 afbd d893 9b39 d81b 2fbd
000001f0: c4a3 42bd 6d97 a5be 3cce 983d 473d ac3d
00000200: 4fb6 02be 1c0e 573e bb08 e1be adbb 70be
00000210: ab1a 643e 5d14 8dbd 1aab a9be 017d 0fbd
00000220: c7a6 033e 7cfa 20bd ce5e bebe cbe8 8e3b
00000230: 38b4 603d 69e3 96be 99c0 edbd 63ba c8bd
